…
Best validation loss: 0.0000
============================================================
Training curves saved to outputs/pixmo_alignment/training_curves.png
Loss components saved to outputs/pixmo_alignment/loss_components.png
LR schedule saved to outputs/pixmo_alignment/lr_schedule.png
Loaded best model from checkpoints/pixmo_alignment/checkpoint_best.pt
Best epoch: 0
Best val loss: 0.0000
MultimodalAlignmentModel(
  (vision_encoder): VisionEncoder(
    (encoder): CLIPVisionModel(
      (vision_model): CLIPVisionTransformer(
        (embeddings): CLIPVisionEmbeddings(
          (patch_embedding): Conv2d(3, 1024, kernel_size=(14, 14), stride=(14, 14), bias=False)
          (position_embedding): Embedding(577, 1024)
        )
        (pre_layrnorm): LayerNorm((1024,), eps=1e-05, elementwise_affine=True)
        (encoder): CLIPEncoder(
          (layers): ModuleList(
            (0-23): 24 x CLIPEncoderLayer(
              (self_attn): CLIPAttention(
                (k_proj): Linear(in_features=1024, out_features=1024, bias=True)
                (v_proj): Linear(in_features=1024, out_features=1024, bias=True)
                (q_proj): Linear(in_features=1024, out_features=1024, bias=True)
                (out_proj): Linear(in_features=1024, out_features=1024, bias=True)
              )
              (layer_norm1): LayerNorm((1024,), eps=1e-05, elementwise_affine=True)
              (mlp): CLIPMLP(
                (activation_fn): QuickGELUActivation()
                (fc1): Linear(in_features=1024, out_features=4096, bias=True)
                (fc2): Linear(in_features=4096, out_features=1024, bias=True)
              )
              (layer_norm2): LayerNorm((1024,), eps=1e-05, elementwise_affine=True)
...
      )
    )
  )
  (alignment_loss_fn): AlignmentLoss()
)
Output is truncated. View as a scrollable element or open in a text editor. Adjust cell output settings...
Collecting embeddings for visualization...
/home/hice1/vchopra37/scratch/projects/edge_glass/edge_glass_env/lib/python3.12/site-packages/PIL/Image.py:1039: UserWarning: Palette images with Transparency expressed in bytes should be converted to RGBA images
…
